checkpoint_banana.pth (torch_old, 62577 bytes, 8 tensors)

fc1.weight f4 [128, 37]
00000000: 8977 ffbd 1f4e 9ebd ef64 c43c fc28 693e
00000010: 0d91 bebd b66b e93d c5d0 f0bd c129 d63c
00000020: 03bb 0f3d 507b 923c bae8 bbbd 4332 213b
00000030: ae10 483d d0bc e83d 80df 19bd 1726 f5bd
00000040: f2e7 31bc 7fa4 963d bc35 fe3d e22f 213d
00000050: d40e 5a3c 7cbe 97be b6d9 47bd a1ba f6bd
00000060: b7c9 16be 5757 40bd a656 d73d 4a62 913d
00000070: bfd0 36be b4cd 3c3e 76e0 bd3d 1f83 8dbb
00000080: 235b 953d 34cb 20be c194 d6be 93b7 a4bc
00000090: e69f 223d d2f6 c4bd c782 2d3e 27a5 f73c
000000a0: b377 023d a75c 3cbc 38e8 b53d 3647 ffbc
000000b0: c19d a2bd ebe2 0d3e cf25 1ebe e920 1d3d
000000c0: e51f c4bd 8da6 113d ca14 91be c458 aebd
000000d0: ea1c 183e c936 23be da4b dd3c 0d44 733e
000000e0: 8358 b53d 4163 f2bd a384 fb3d 6bf3 443c
000000f0: 8fb9 163c 30d7 463e 9dc0 523e 17f1 c43d
00000100: 5dae fcbe c663 0abe c8ec 07bf d158 78bb
00000110: 242c 31be e513 21bd ce25 c23d 92ab 1bbe
00000120: f816 5c3d 28e0 e1bb 1356 3b3b 9376 1a3e
00000130: 977c bbbc 4fd1 983d bf15 88be 7be3 933d
00000140: 1819 e8be aeb0 a8bd 9ac2 283d 6a70 9b3d
00000150: 7c32 d33d d721 c9bd ce4f 3fbe 3b93 223e
00000160: 7bc9 36be ea9e 4e3e fcf9 11be a081 fabd
00000170: 3ed5 7cbd 9a94 3fbd cf3f 88bd 53b9 f5bc
00000180: 5d12 ec3c 51de f0bd 51d6 dd3c a051 4bbd
00000190: 512e db3d f575 59bc 4e0c acbd 1d45 053e
000001a0: 06e9 1ebd 81c3 ddbe f9c9 ea3d a4cb 023e
000001b0: 51e2 b53e 1637 07bc 26d9 193d 63fa 823d
000001c0: 3ebd d93d 4705 7d3d baa8 93ba e1cb 6cbc
000001d0: 66e9 a53e 3f38 e8be 51e3 dbbe 43b9 f1be
000001e0: be14 9ebf e77c 223d 6ec2 0e3e a427 3f3c
000001f0: 09cd 2e3d 3944 d8bd 6c8c c73c 823a c63b
00000200: 487a 2bbc 0753 b03d 645e f639 7db6 163c
00000210: a4d2 243e b42b 3e3e 09e9 2c3e af2a 263e
00000220: 2590 103e d9c6 9abd fb14 c8bb f5b8 77be
00000230: 73d2 81be bbe3 dcbc ce04 99ba b900 b33d
00000240: c46a aebc d38c e73d aa00 7e3c eb8b ac3b
00000250: 7a04 603e b801 1f3e 7eee c1be 6926 7d3e
00000260: 956f 123d 5b5c 043d d669 83be cacf cdbd
00000270: 47db 0abe 609a f4bd b3c0 303e 4247 75be
00000280: 0a79 58bd 1898 8d3d 30b7 1d3d c534 243e
00000290: d491 3abe 3f02 34bd 7863 23be 350f a7be
000002a0: 3854 35be 06e5 05be 351f 86bd c804 423e
000002b0: 54d3 c63d bc38 043c 470a ac3e 0d4c 1e3e
000002c0: b337 a5be 4318 0cbe 6ca7 2ebe c2d0 133e
000002d0: 5b73 14be 87bc d73d ebf3 38be 44f8 a4bc
000002e0: d0a9 49bd 07f3 813e ab20 81be 8799 1dbe
000002f0: 1e7f 58bb 792c a9be 7d9f 6b3e 4e7e ecbd
00000300: 86ae 98be cab4 13be 87dd 9cbe c449 173d
00000310: 523d 493e 1746 28bd 85b1 97bd f603 20be
00000320: 1276 f23d ef72 d2bd 886d 093e 08e1 2bbe
00000330: b8d6 81bd 2fbc 0f3e 4095 f2bd f845 ecbc
00000340: 20be bebd ac8c a83b 7986 ebbd 8730 f13d
00000350: 1505 ad3b abe8 323e 0963 733e 2c0b 2b3e
00000360: 4157 b43d f82e b9bd fbf1 303d 63ae 723e
00000370: a61e eebd 6de4 033d 404d 17bc e7d4 35be
00000380: 554c 113e 59df a6bd ccb4 d2bd 56cf 863e
00000390: d57d 94bd 4e48 683d 8c78 913d 6b24 81be
000003a0: 72b3 5b3e f290 863d 8fef 1c3b a816 b0bd
000003b0: 2aa0 3bbe 91bf bc3d dda1 0a3b 1aa9 5bbd
000003c0: 5cfa 773d 24ec cfbc 9de4 4c3e e5d0 12bd
000003d0: 59c0 7dbe 6a77 3ebd 0125 6ebf 739e 833c
000003e0: 53d1 03be 1bd3 193d 90e2 243e daca 873d
000003f0: 819d c33c f027 d33d 3188 973d 5311 1b3d
-0.124739714 -0.07729744 0.02397391 0.2276954 -0.0930501 0.11397497 -0.1175857 0.026142957
0.035090458 0.017881066 -0.091752484 0.0024596609 0.048844032 0.11364138 -0.03756666 -0.11970156
-0.010858523 0.07355594 0.12412593 0.039352305 0.013309199 -0.29637516 -0.04879161 -0.120473154
-0.14725386 -0.046958294 0.10514574 0.07098825 -0.17853068 0.18437845 0.09271328 -0.0043186094
0.072927736 -0.15702516 -0.41910365 -0.020107066 0.039703272 -0.0961739 0.16944419 0.030230118
0.031852435 -0.011496699 0.08882183 -0.031161886 -0.079402454 0.13856094 -0.1544411 0.038361464
-0.09576396 0.035559226 -0.28336173 -0.085130244 0.1485478 -0.15938868 0.027013708 0.23756428
0.08854773 -0.118353374 0.12281158 0.012020926 0.009199514 0.19418025 0.20581289 0.09616297
-0.4935178 -0.13514623 -0.53095675 -0.0037894736 -0.17301995 -0.039325614 0.09479867 -0.15202168
0.053732842 -0.0068931766 0.002858524 0.15084295 -0.022886558 0.074617974 -0.2657909 0.07221123
-0.45331645 -0.08236824 0.04120121 0.07589801 0.103123635 -0.098209076 -0.18682787 0.15876476
-0.17850296 0.20177808 -0.14255518 -0.12231755 -0.0617268 -0.046772577 -0.066527955 -0.029995596
0.02881735 -0.117611535 0.027079733 -0.04963839 0.107021935 -0.013272752 -0.084007844 0.13014646
-0.038796447 -0.4331322 0.114643045 0.12772995 0.35524228 -0.00825288 0.037560605 0.06395414
0.10631798 0.06177261 -0.0011265494 -0.014452905 0.3240463 -0.45355412 -0.42946866 -0.47211656
-1.235008 0.039669897 0.13941357 0.011667166 0.042676006 -0.105598874 0.02435895 0.006049455
-0.010466166 0.08609586 0.00046991103 0.009198782 0.16095978 0.18571359 0.16885771 0.1622722
0.14117487 -0.075574584 -0.0061060167 -0.2419165 -0.25355873 -0.02696406 -0.0011674406 0.08740372
-0.021291144 0.11306157 0.015503088 0.005265703 0.21876708 0.15528 -0.37877268 0.24721684
0.035750944 0.03231464 -0.25666684 -0.10049398 -0.1356021 -0.11943507 0.17261009 -0.23952964
-0.052849807 0.06913775 0.03850478 0.16035755 -0.18219692 -0.043947455 -0.15955913 -0.3262879
-0.17707908 -0.13075647 -0.06548921 0.18947136 0.097082764 0.008070167 0.3360159 0.15458699
-0.32269058 -0.1368113 -0.17056054 0.14435104 -0.1449713 0.105340056 -0.18061797 -0.020137914
-0.04923421 0.25380728 -0.25220236 -0.15390597 -0.0033034752 -0.33041742 0.23010059 -0.11547528
-0.2982065 -0.14424434 -0.30637762 0.036935583 0.19652298 -0.041082468 -0.07406906 -0.15626511
0.118389264 -0.10275828 0.13420689 -0.16785061 -0.063397825 0.1403663 -0.118448734 -0.028841957
-0.09313607 0.0051437225 -0.11500258 0.11776834 0.005280147 0.17471568 0.23768248 0.1670348
0.08805705 -0.09042162 0.04319952 0.23699336 -0.116269395 0.032200266 -0.009234726 -0.17756997
0.14189275 -0.08148069 -0.102883905 0.2633006 -0.07250563 0.05670958 0.071030706 -0.25223097
0.21455172 0.06570615 0.00239465 -0.08598071 -0.18322816 0.09216226 0.0021153607 -0.053628065
0.060541496 -0.025381155 0.20009084 -0.03584375 -0.24780406 -0.0465006 -0.93025213 0.016066765
-0.1287282 0.03755484 0.16102052 0.06630488 0.023878815 0.10310352 0.07399023 0.03785832

fc1.bias f4 [128]
00000000: 48ce c13d 92f5 c3bd c383 17be 3604 c93d
00000010: f86a 29bd 0a90 03be a4da 98bd 0775 7f3d
00000020: e8fc 0ebe 2757 513e 93c0 fcbd 6864 8e3c
00000030: 076c e8bd aa63 2d3d e9e9 8e3d a46e 873d
00000040: 6b5c 1fbe 6511 8fbd 1a2e 82bd 39dc d1bc
00000050: 6116 88bc 58d1 313e a676 77bd 672c a23d
00000060: 4cdb 1fbd ebdb c2bd 8277 e1bd 8e62 5c3d
00000070: 368a 3dbb eb20 1e3d 557d 713d 6e53 303e
00000080: 639e 943d 03a2 1fbd 4339 703d 8ee2 cc3d
00000090: 3c6c 983c e438 f33d 7ba0 0dbc 8b68 d83d
000000a0: e1dd dbbd e1c8 b33d 9cc5 c5bd 6d32 75be
000000b0: 7a06 c6bd 95f2 0dbe 4d47 97bd 52c9 db3d
000000c0: dfa5 ec3a d9ed 983b fd56 cfbc f04b 0abe
000000d0: 67e4 453d 4187 253d 2166 3fbe 8f06 173c
000000e0: d3ee 8b3c bf88 3dbe cecd 8f3d 84cb 7bbd
000000f0: b762 b8bd 58e3 c93d eacd f4bd 6cd4 2fbd
00000100: 693e c33d 7847 b6bc b35a 223c 0f51 22be
00000110: c2a7 acbd 5778 6a3d c631 0dbd b1f0 263e
00000120: 9661 003e 1ad1 9e3d 70de 263d cf8f 1cbd
00000130: cd80 5ebd 1339 a8bc cb0a 03be 489e 8c3c
00000140: 8dd2 023a 70f7 6bbe b2c0 853b 2f3a 5ebe
00000150: 21e7 773d 6ce6 26bd b9be 713d 4fb7 84bd
00000160: dd5f 23be 652b 743c 3ddd 22be 5dea 103e
00000170: 7522 003d 5d68 963b 1af1 b83d 76ed 833d
00000180: 33fc 333e 20a6 ca3d 4c69 b5bd de16 31bd
00000190: 94e7 43be 7732 373c ed42 eebc 7af4 6f3d
000001a0: 92bc c03d 291f 4dbd c071 dcbd b7ee e53d
000001b0: 9797 033d 32f2 2cbe 0a2c a2bd bcf7 66be
000001c0: 8b75 543c 5fc3 aa3d e228 903d 83b9 763d
000001d0: e95e 46bd a884 e63d 5fb5 e63c 0bd8 363d
000001e0: 125d 223e a5db 15be cf73 93bc c8f8 97bd
000001f0: 8561 2bbd 36fa 8c3c 34b2 e8bd 3b56 cb3d
0.09463173 -0.09568323 -0.14796357 0.09815256 -0.04136178 -0.12847915 -0.074635774 0.062367465
-0.13963664 0.20443402 -0.12341418 0.017381862 -0.113487296 0.042331375 0.069782086 0.066129
-0.15562598 -0.069857396 -0.063564494 -0.025617706 -0.016612234 0.17365015 -0.060415886 0.07918625
-0.039027497 -0.09514602 -0.110091224 0.053804927 -0.0028921491 0.03860561 0.058957417 0.17219326
0.07256772 -0.038972866 0.05864836 0.100041494 0.018606298 0.118760854 -0.008644219 0.10566815
-0.107356794 0.08778549 -0.096568316 -0.23945017 -0.09669204 -0.13862069 -0.073866464 0.10731758
0.0018054805 0.0046670255 -0.025310034 -0.1350553 0.048313525 0.04041219 -0.18691303 0.009217872
0.017081654 -0.18509196 0.07021676 -0.061473384 -0.09003203 0.098578155 -0.119533375 -0.04292719
0.09533388 -0.022250876 0.00990932 -0.15851234 -0.08430435 0.05724367 -0.034471296 0.16302754
0.12537226 0.07754727 0.040739477 -0.038223084 -0.054322053 -0.020535028 -0.12797086 0.017165318
0.0004990481 -0.23043609 0.004081809 -0.21701883 0.060523156 -0.04074709 0.059019778 -0.06480276
-0.15954538 0.014902924 -0.15904708 0.14151902 0.03128286 0.004590078 0.090303615 0.064417765
0.17576675 0.09894967 -0.088579744 -0.0432347 -0.19131309 0.011181465 -0.029084647 0.05858276
0.09410967 -0.050078545 -0.107638836 0.11227172 0.03212699 -0.16889265 -0.07918556 -0.2255544
0.012967478 0.08338045 0.07039048 0.06023551 -0.048430357 0.11255771 0.028162656 0.04463963
0.15855816 -0.14634569 -0.017999558 -0.07420498 -0.04184105 0.017209154 -0.113621145 0.099285565

fc2.weight f4 [64, 128]
00000000: 787a eebc 6278 e2bd 87e8 073e 4360 bebd
00000010: 1943 aa3d 6186 6d3d 7fbc a8bc 1d20 ac3d
00000020: 2a16 e9bc d3d4 84be 6ba2 6d3c 8d7b 213d
00000030: 79e3 e53d 20df ea3a 1cee 7c3d 5175 25bd
00000040: 5542 ff3b 59b4 1cbe 0023 a33d a542 793d
00000050: 53f1 86bc b7b5 8bbd 3e6c 61bd bb7b c7be
00000060: b65f 0c3e c80b 6c3d b12d 303e 1b55 a0bd
00000070: 1346 523c 438a b8bd aebd 053d e242 e4bd
00000080: ce17 99bd d773 233e 1ea1 08bf c094 96bc
00000090: b097 d9bd 68f8 193e f9a6 853d 6e42 9abc
000000a0: fe45 0fbe e792 223e 01f1 34bc 8af3 e83b
000000b0: fc95 9abd a749 013e 69b2 013d 3ba5 773e
000000c0: 47ba 773d fc05 06bd e824 05be a758 26be
000000d0: ec48 093e 54ca 98bd 810f 073c 19af 133e
000000e0: 8b00 9d3d 3560 db3c 78ff 9f3d 2de6 61bc
000000f0: 73ae 2fbe 3e67 c13d 113f d93d 1206 90bd
00000100: 309d 4a3e 4af4 c93c df41 0dbe e631 5fbc
00000110: 69fd 89be a765 1dbe 2e21 4cbd a6aa 7c3d
00000120: fb32 d6be 82fd 0fbe 474a 51bb cbf4 2bbe
00000130: abfe c13c 9b3b 893c fcca 68be ce0c 52be
00000140: 82cd 0bbd b2fd f8b9 6d2f 9cbe e9c6 0f3d
00000150: 4c67 683c ad76 34be f96d cf3d 8eeb f9bd
00000160: d650 493d 7a82 1e3e 036a 383d dcd2 afbd
00000170: 94dc 3abd 4ca1 cabd 5cca e2be 2297 c8bd
00000180: db8d 06be 4276 03bc eeb6 2b3d 6a75 20bd
00000190: f622 c83c f099 6d3d 78d5 613d 1ed0 06bd
000001a0: 34fc 39bd 186e d23d bce5 083d 5303 edbd
000001b0: 8cd7 09bd 167f c33d ac6f 12be 8176 e13d
000001c0: ccba 673d c111 a23c 0c7b 69bd 2c78 e6bd
000001d0: 308a 113d 8b06 14be 9d65 a8bd 96fa a9be
000001e0: 647f 41be e22b fbbc c89f 583d af5c 66bc
000001f0: 9100 ae3d c9db 553d 6890 b83d 015c a03d
00000200: f78a 963d 4513 bfbe 8601 23be d124 d0bd
00000210: 68f1 893c a58a d7bd 59d7 c83c 1b96 d73c
00000220: a3f9 1e3d abd4 edbd 691c bf3d df69 ddbd
00000230: 7406 0cbe b0f0 473c 5a3c 2cbc 0884 493e
00000240: 6a87 f93c fa20 703e 3fae 9e3d 4458 87bd
00000250: 2636 60bd 8459 a43c fb24 e63d 60eb 313e
00000260: 12dd 833d 3bd1 0ebd 260f 24bd 40e1 bd3c
00000270: 73c7 323e 609c 133e e5e5 32bd 7c1b 62be
00000280: 6b19 0b3e 0946 113e b529 9bbe 8c79 b2be
00000290: 8b7e 263d 28ef d1bd 1172 0bbd 3ef8 1ebe
000002a0: ee32 8e3e 2a45 3d3d 247b fe3d e45b 513d
000002b0: a783 8ebc 89f1 fa3d 65a1 abbd adb4 07be
000002c0: c09e c03d 6202 8d3d 2e2c a3bd 91c3 8cbb
000002d0: 89a7 723d d48a 963e b17a 143d 5a93 223e
000002e0: 43a7 59bd a808 463e 7501 9bbb 6d9d 8e3d
000002f0: 1538 e33d 3839 683c 2cdc 443d 8909 c43d
00000300: df5c d13d b2f4 f4bb f629 f5bd 35f9 c93d
00000310: eb8f d5bd 9e08 6fbc 68bb af3d 572f 2fbe
00000320: f3d2 9cbe 66c1 1a3e 4805 83bd ef6c c2bd
00000330: 2280 0f3e cc5c 893c 496f 223e 1207 81be
00000340: a6a5 203e d79d b9bd bd01 f8bd ce72 a53d
00000350: 4c2c 19bd fe2a 8d3d 3fc7 62bd 7711 09be
00000360: 8dab a73d bbae 81be c11f 0e3d 789b 2dbe
00000370: 3b3f 5abd 12f3 2cbd 1754 b1be d866 10be
00000380: 4575 c4bd cfd6 eebc 275c b33d f1f2 ea3d
00000390: cd34 553e 616c d43b aa59 273b 3927 97bc
000003a0: a122 0e3e fd0c 9bbb f853 3bbb 6fbf 5cbe
000003b0: fb92 2abd 898d 863c 80fe 743c 1043 d03b
000003c0: fbd5 54be e493 e4bc c2ac 9f3c 1340 94bd
000003d0: 5f7f f23c a524 aebd 0bde b03d c56a 03be
000003e0: 2eee 89be 91d0 0e3e afd7 a53d 15fd 883d
000003f0: 2625 513c 098b 143e feaf fabd 93a0 c5bd
-0.029111132 -0.110581174 0.13272296 -0.09295704 0.08313579 0.05798948 -0.020597694 0.084045626
-0.028452951 -0.25943622 0.0145040555 0.039424468 0.112250276 0.001791928 0.061750516 -0.040395085
0.00778989 -0.15303172 0.0796566 0.060854573 -0.016472494 -0.06821769 -0.05503487 -0.38961586
0.13708386 0.057628423 0.1720493 -0.078287326 0.01283409 -0.09010746 0.032651596 -0.111455694
-0.074752435 0.15962158 -0.53370845 -0.018381476 -0.10624635 0.15036166 0.06525988 -0.018830504
-0.13991544 0.15876351 -0.011043788 0.0071091102 -0.075481385 0.12625752 0.031664286 0.24184124
0.060480382 -0.03272055 -0.1300236 -0.16244756 0.13406724 -0.07460466 0.0082434425 0.14422263
0.07666119 0.026779274 0.07812399 -0.013787788 -0.17156391 0.0944352 0.10607732 -0.07032408
0.19786525 0.024652619 -0.13794659 -0.013622737 -0.2695115 -0.15370809 -0.04983633 0.06168618
-0.4183577 -0.1406155 -0.0031935142 -0.167926 0.023681005 0.016752055 -0.22733682 -0.20512697
-0.034131534 -0.00047491264 -0.30504933 0.035101805 0.014184784 -0.17623396 0.101283975 -0.122031316
0.049149357 0.1547946 0.045022976 -0.0858514 -0.045620516 -0.09894046 -0.44295013 -0.09794451
-0.13140051 -0.0080238 0.041922502 -0.039174475 0.024430733 0.058008134 0.05513522 -0.03291332
-0.045406535 0.10274905 0.033422217 -0.115729 -0.033652827 0.09545724 -0.14300412 0.11008931
0.056574628 0.019783856 -0.057002112 -0.1125339 0.035532176 -0.14455621 -0.08222506 -0.33198994
-0.18896252 -0.030660573 0.052886754 -0.014060183 0.08496202 0.052211557 0.09011918 0.07830048
0.07350724 -0.3731939 -0.1591855 -0.10163272 0.016838744 -0.10524491 0.024516748 0.026316693
0.03881229 -0.11612829 0.09331591 -0.10811209 -0.13674337 0.01220338 -0.010512436 0.19679272
0.030460078 0.2345008 0.077480786 -0.06608632 -0.05473914 0.020062216 0.11237522 0.17374945
0.0643865 -0.034867506 -0.04005351 0.023178697 0.17458896 0.14415121 -0.043676276 -0.22080797
0.13583915 0.14186873 -0.30305257 -0.34858358 0.040648025 -0.102506936 -0.03404433 -0.15524384
0.2777323 0.046208538 0.12425831 0.051113024 -0.017396761 0.122531004 -0.08380393 -0.13252516
0.09405279 0.0688522 -0.07967411 -0.0042957743 0.059241805 0.29402792 0.03624982 0.15876523
-0.05313803 0.1933924 -0.0047303983 0.0696362 0.11094681 0.014173798 0.048061535 0.09572131
0.10222792 -0.007475459 -0.11970894 0.098619856 -0.10427841 -0.014589457 0.08580667 -0.17107902
-0.3062969 0.15112838 -0.06397492 -0.09493434 0.14013723 0.016767882 0.15862764 -0.25200707
0.1568819 -0.09063309 -0.121097066 0.08078538 -0.03739576 0.06892966 -0.055365797 -0.13385569
0.081870176 -0.2532862 0.03469825 -0.16953838 -0.053282958 -0.042223997 -0.34634468 -0.14101732
-0.0959268 -0.029155163 0.08757811 0.11472119 0.20820923 0.0064826463 0.0025535622 -0.01845132
0.13880397 -0.004731773 -0.0028583985 -0.21557401 -0.041644078 0.016424911 0.014953256 0.0063556507
-0.20784752 -0.027902551 0.019491557 -0.07238784 0.02960175 -0.08503083 0.08636101 -0.12833698
-0.2693953 0.1394675 0.08097779 0.066888966 0.0127652045 0.14506163 -0.12240599 -0.09649768

fc2.bias f4 [64]
00000000: f910 debd 8bea 6dbd 1ab7 b7bd c55e e2bc
00000010: 7851 b93d 789c 80bc 5cad d6bd 79d5 e63c
00000020: 347b 01bd 02e0 483e 25b7 6a3d c859 993d
00000030: 22c7 28bd 4138 aa3d 3456 7bbd db36 2b3e
00000040: d1e4 413d fc93 4a3c 5ce9 a23d c29f 9f3c
00000050: d521 6a3d 99c3 ba3c af2d 683d f2a2 473e
00000060: 61b8 683e dc4b 89bd ee15 0f3e ef3c 08be
00000070: 0746 a6bd 43f4 12be a760 a3bd e732 96bd
00000080: 0e08 58bb 5247 603a 09fd 793d f92c 913d
00000090: 2cb4 e83d 82f1 dabd dd99 fa3d b9fa 953c
000000a0: 813f e3bd 25fb ec3b d904 71bd a96f 40bd
000000b0: bdc7 b53d af48 ae3d 8adb e4bc c650 b0bd
000000c0: 5a49 253d 686f 39bd 3f50 833b ff61 a43d
000000d0: 430d 9f3d c385 1dbd c814 a4bd bd02 ccbc
000000e0: c3b8 af3b 1bd8 8fbc 6ec4 78bd 591f 263e
000000f0: 20bd 883d bf55 07bd d704 6ebc 21c4 ea3d
-0.10843081 -0.058085006 -0.08970471 -0.02763308 0.09048742 -0.01569961 -0.104822844 0.028177964
-0.031611636 0.19616702 0.057303566 0.074878275 -0.041205533 0.08311511 -0.061361507 0.16720144
0.047337357 0.012364384 0.07954666 0.019485358 0.05716117 0.022798346 0.056684192 0.19495752
0.22726585 -0.06703922 0.1397321 -0.13304494 -0.081188254 -0.14350991 -0.07977419 -0.073339276
-0.0032963785 0.00085555494 0.06103233 0.07088656 0.1136249 -0.10690595 0.12236378 0.01830803
-0.11096097 0.007232087 -0.058842514 -0.046981487 0.08875988 0.08509957 -0.027936716 -0.08609156
0.040353157 -0.04527226 0.004007369 0.08026504 0.07766201 -0.038457643 -0.08011776 -0.02490365
0.0053626015 -0.017559102 -0.060734205 0.16222896 0.06676698 -0.03304076 -0.014527521 0.1146319

fc3.weight f4 [32, 64]
00000000: 78a4 3c3e b68f 483e 62b8 3abc 0273 a3bd
00000010: 6d67 c5be cd34 283e de00 09be e571 5bbd
00000020: aea0 28bd ffbb cfbb c309 80bd 8235 f2bc
00000030: 55d9 433e 5db3 ecbe a3d1 aa3e 0378 9fbc
00000040: 03b9 58be 5106 403d 5e4e 92bd 27fa ed3d
00000050: 2f45 003e 39ae b5be 20c1 353e 6491 d83d
00000060: fa28 293d 6426 2a3e f601 653d 5acf f93e
00000070: 2f39 95bd 7a30 043e 536b 3c3c b85e e5bd
00000080: b131 27bd 9323 73be f8a4 883c 6406 a3be
00000090: f011 1b3d a5c5 e0bd 2aac 9ebe c3a2 e6bd
000000a0: 318e c23c f468 82bd 823f 6b3e 0937 fd3c
000000b0: 486d 1c3e 02b7 2abc 74f2 953e ee70 5fbc
000000c0: b8e0 253e ec49 ee3d 47bb bdbe 3906 cbbc
000000d0: 5257 bfbc b633 0e3c bca5 893d 5ecf 4d3e
000000e0: c451 0d3c f830 753e 5f4a a63c ea37 fd3d
000000f0: 34e5 babe 7296 aa3d a953 753d e300 2cbe
00000100: 8114 f3bd ec7d cc3c a4ba 5fbd b646 873e
00000110: ddbf cf3d 2174 03bd ef1a 263e 68b9 c23d
00000120: 4312 013b 8e68 283e abc0 bd3e b243 2a3e
00000130: a347 893e 362d a9bd 192e 10be 765c 15bd
00000140: b750 763d e430 883e 4835 073e 93d8 1ebe
00000150: b6ef 96bd 7422 583e e53d a3bb 45b4 003d
00000160: 5cda d4bc d0ab 723c a1ac 8cbd 3bbe f23d
00000170: ad26 0b3d 2b49 2dbe 3ec0 373d 60b4 a03e
00000180: 1f25 78bc ca74 08be 3b27 c0bd 215f 98bd
00000190: 9cd8 a03b f829 d13d 826b f03c b460 5c3d
000001a0: 7133 82be b370 ae3d 1232 483e a3b2 30be
000001b0: 7a18 63bd c61a 1e3e 6203 5d3e 6413 0b3d
000001c0: 14f9 d6bd 6cd4 e8bc 69ff 3c3d f5a4 313c
000001d0: 6720 87bc 25bd 07be a717 183e 9599 6ebe
000001e0: c600 b9bd 87a7 cbbc ac08 26bd 2d0b 063e
000001f0: 95ad 3a3a 1ec7 233e 1744 03bc 66e2 d83d
00000200: 087c 373e b4f1 9cbe 05bb 353e 15d4 77be
00000210: 26bf e43d 9199 98bc d077 b73d 1fed 35bd
00000220: 66f9 b63d d97b e2bd 2f11 fbbb 9c36 713d
00000230: 3baa 30be 812f 463c 8bc1 9b3d f0e8 093e
00000240: 6353 ff3d 3485 a83c 3e92 973d e03d 883d
00000250: 741e b03d 4a04 4abd 11ef 8cbc da81 c63b
00000260: 4cb5 b4bd 449b 7d3d 0adf d03d 1b18 103d
00000270: 9c69 e83d 55c4 613e e1cf 3d3e c839 52be
00000280: 4643 263d 135c a53c 8915 313e 0554 d63d
00000290: 03fe 453e 0598 a2bd 0e75 313e 5f7f f1bd
000002a0: 808a 0a3e aacf b9bd ba7a f43c a0ae 77bd
000002b0: 1683 fdbd 0c43 cf3c 81a5 e03b 017b 17be
000002c0: 194c 2c3e 5777 ad3d d515 a93d 1919 f03d
000002d0: 3dab 123d 9fe0 923e 9c8e b83c 28d3 dc3e
000002e0: d6bb 9a3d 8d48 6b3e 666f 633e 0711 6a3b
000002f0: 174c 5e3d eb7b 9c3d 0af2 a83d 4b0a cabd
00000300: a802 76bd c108 bdbd a07b afbd f212 24bb
00000310: 5217 c23b 078d 1e3e bf6d 253e 19f9 b93e
00000320: 6615 263e c6ec 183d fbe8 9e3e 3f1d 283e
00000330: 7c89 803e cb13 0f3e 0f90 e4bd 777b 3d3e
00000340: 1cef ff3d 4c64 913c 5ced 3b3e a57a 26be
00000350: 20f9 073e 7404 3f3d 7d7a 3d3e 361e 283e
00000360: ac4d 353c f79f 853e 2050 3e3d 59bd abbe
00000370: 9069 f83d 1913 54be efbe c6ba cd7a bf3e
00000380: 42f2 9b3d 440e c1bd 642a e6bd e4d6 a43d
00000390: a83c 573d 4594 4b3c e4a3 7c3d 0dc0 9d3e
000003a0: dd30 55be 6ab6 1c3e dfc1 56bd 3db2 e03a
000003b0: 222d 05be 711b 4a3d 75d6 aebe d627 593e
000003c0: d0d2 e7bd 079c a93d 4102 013e b077 7cbd
000003d0: 9e7c b93d 9ebf 133d 0c62 ccbe 110d 22bd
000003e0: bdcf 003d 4c5b e3bc a8e2 bbbe 8ec8 133d
000003f0: 785d 3e3d abba 403e 011d 873d cc48 113e
0.18422115 0.19586071 -0.011396499 -0.079809204 -0.3855547 0.16426392 -0.13379237 -0.053575415
-0.04116886 -0.0063395496 -0.06251862 -0.02956653 0.19125874 -0.46230593 0.33363065 -0.019466406
-0.21164326 0.046881024 -0.071438536 0.116199784 0.12526391 -0.35484484 0.17749453 0.10574606
0.041298844 0.16616207 0.055910073 0.4879101 -0.072862975 0.12909117 0.011500197 -0.11199707
-0.040818874 -0.23744039 0.016680226 -0.31840813 0.037858903 -0.10975198 -0.30990726 -0.11261513
0.023749443 -0.063676745 0.22973445 0.030910032 0.15276062 -0.010419609 0.2928654 -0.013637764
0.16199005 0.11635193 -0.37056944 -0.02478324 -0.023357067 0.008679321 0.067210644 0.20098636
0.0086254515 0.23944461 0.020299135 0.123641804 -0.36502993 0.083294764 0.059894238 -0.16797213
-0.11869145 0.024962388 -0.054621354 0.26421136 0.10144017 -0.03209317 0.16221212 0.0950802
0.0019694723 0.16446134 0.37061056 0.16627386 0.26812467 -0.082605764 -0.14080085 -0.03646513
0.06013557 0.265998 0.13203919 -0.15512304 -0.0736994 0.21106893 -0.0049817436 0.03142192
-0.025983028 0.014811471 -0.06868864 0.1185269 0.03397243 -0.16922443 0.04486107 0.31387615
-0.015145569 -0.13325801 -0.093824826 -0.074400194 0.0049086343 0.10213083 0.029348139 0.05380316
-0.25429872 0.085175894 0.1955035 -0.17255645 -0.055443265 0.15439901 0.21583322 0.03395404
-0.10496727 -0.028421603 0.046142016 0.0108425515 -0.016494943 -0.13255747 0.14852773 -0.23300774
-0.09033351 -0.024860157 -0.040535614 0.130902 0.00071212027 0.15993926 -0.008011839 0.10590057
0.17918408 -0.30653155 0.17747124 -0.24201997 0.11169271 -0.018627914 0.08958399 -0.04441559
0.08934288 -0.11058778 -0.0076619606 0.05888997 -0.17252438 0.012096287 0.07605275 0.13467765
0.12467077 0.020571329 0.0740094 0.06652427 0.085995585 -0.049320497 -0.01720384 0.00605796
-0.08823642 0.06191565 0.10198791 0.03517924 0.113482684 0.22047551 0.18536331 -0.20529854
0.0405915 0.020185506 0.17293371 0.10465244 0.19335179 -0.07939152 0.17329809 -0.11791872
0.13529396 -0.09072812 0.029843677 -0.06046927 -0.12378518 0.025300525 0.006855667 -0.14793016
0.16825904 0.08470028 0.08256117 0.11723537 0.035807837 0.28686997 0.022528939 0.4312985
0.07555358 0.22976895 0.22210464 0.0035715715 0.054271784 0.07640823 0.0824929 -0.098652445
-0.060061127 -0.09230185 -0.085685015 -0.0025035706 0.00592319 0.15483485 0.16155146 0.3632286
0.162191 0.03733518 0.31037125 0.16417406 0.25104892 0.13972394 -0.111602895 0.1850413
0.12496778 0.01774802 0.18352264 -0.16257723 0.13278627 0.046635106 0.18503757 0.16417775
0.011065882 0.26098606 0.046463132 -0.33542898 0.121295094 -0.2071041 -0.0015163104 0.37398377
0.076145664 -0.09426549 -0.11238554 0.080488 0.05254808 0.012425487 0.061679736 0.30810586
-0.20819421 0.1530396 -0.052430984 0.0017142963 -0.13005498 0.049342576 -0.34147993 0.21206602
-0.11319506 0.08281713 0.12598516 -0.06163758 0.09056972 0.036071412 -0.39918554 -0.039563242
0.031448115 -0.027753495 -0.36696362 0.036079936 0.046475857 0.18821208 0.06597329 0.14187926

fc3.bias f4 [32]
00000000: ac4e b43d fd29 ad3e 3cda 2fbe fab7 ad3e
00000010: f39e a6bb 7dbb ba3d 2075 0dbe 81cf a13c
00000020: 822a b5bc 4061 623c 504a 093e 8979 0ebb
00000030: 8e19 1e3e 4f14 1f3e a10a 903e e182 683e
00000040: 991b 2c3e 332f 363d 419a 8ebd d76b 783e
00000050: 3e60 b03e b303 113d 0807 873e 39a3 0e3e
00000060: 2f73 8c3e 3aa4 a43d 7e3f f6bd 97e9 fb3d
00000070: 6edc 12be f6c2 173e b009 313d 1cea 8f3e
0.08804068 0.33821097 -0.17173094 0.33929425 -0.005084866 0.09117792 -0.13814211 0.019752266
-0.022114996 0.0138171315 0.13407254 -0.002173992 0.15439436 0.15535091 0.2813311 0.22706176
0.16807403 0.044478606 -0.06963015 0.24259888 0.34448427 0.03540392 0.26372552 0.13929452
0.27431628 0.08039136 -0.12023829 0.12300413 -0.143419 0.14820465 0.04322213 0.281083

fc4.weight f4 [4, 32]
00000000: 84d2 a33e db9c 073e 060e 26be b9f4 933d
00000010: 6a8e 7a3e bd8f 8dbe f79e c8bd 313f 0bbf
00000020: 1e19 b4be 5f6a 3a3e b2d9 023e d3c5 1bbe
00000030: b9c6 e4bd 28a0 de3e c5f2 653e 28b1 2a3e
00000040: bf02 183e c214 72be faae c3bd 8fc5 763d
00000050: f308 783e 6a09 203e 88d2 523e f850 8c3e
00000060: 0abc 853e 2318 43be c260 45be 3dc9 673e
00000070: 652e 67be 7996 09bf 292f afbd 8ef0 623e
00000080: 9e1d ce3d 6843 6e3d ee2e 95bd 4af5 9b3e
00000090: 0105 623e 0c2e 83be 6e3e d3bd 6a8d fd3d
000000a0: 8c46 1bbe eab6 2c3d 0783 b73e 1df4 bdbe
000000b0: 98b4 133e 1d45 973e 5bc2 7a3e c230 e8bd
000000c0: 8fba 80bd f2e4 0ebd 6ef0 24be a3eb 943d
000000d0: eaf6 6ebd dac7 92be aa34 d73d d832 3b3e
000000e0: 2a43 863e e66f 96be 4fe6 0fbd 3980 b13e
000000f0: 2f01 c6bd 4dc9 05be 7674 1c3e 631c 9a3d
00000100: 6157 74be e8c0 193e 5320 efbd 6398 833e
00000110: 755f c83e f49c 80be 16b8 bd3d f664 5dbe
00000120: ed33 12be 6775 04be 826a b23e e78e 1fbf
00000130: f747 9ebd d3a3 0b3f 3c46 04bd 022f 113e
00000140: 5597 663e 9a0f 073e 9ec9 b1bc 0dce 603e
00000150: 7e21 493e 6943 e93d 0b69 723e 1625 e6bc
00000160: f9a4 bf3d f744 44be 111c 663e 012e ec3d
00000170: 7879 013e c5f7 47be 61c9 05bc 6092 163e
00000180: 81df 35be 8c5b 2d3e 0a9d 48be b3b0 7c3e
00000190: 42a4 06be 6e01 cabe 5aa1 9dbd a9eb 24be
000001a0: 37a0 fdbe 42df 463e 834b c8bb 27f9 26be
000001b0: ee2d 5b3e 25f0 373d bceb 843e c704 503d
000001c0: ba94 473e 3132 183d 3e3a 19bf d0e7 1f3e
000001d0: 8710 5d3e 53d0 123e 44b3 15bc 4703 c33e
000001e0: 2005 c63d a93b 803d 9c15 953e 73e9 4d3e
000001f0: acdd 90bd fe92 1bbe 61f0 b1bd 2953 1f3e
0.31996548 0.1324343 -0.16216287 0.072244115 0.24468389 -0.27648726 -0.09795945 -0.543933
-0.35175413 0.1820464 0.12778357 -0.15212183 -0.11170716 0.43481565 0.2245589 0.16669142
0.14844798 -0.23640731 -0.095548585 0.060247 0.24222164 0.15628591 0.20588124 0.27405524
0.26120025 -0.19052176 -0.19275191 0.2263536 -0.22576292 -0.5374523 -0.08553917 0.22162077
0.10064243 0.058169752 -0.07284342 0.30460578 0.22072221 -0.25621068 -0.10314642 0.12380488
-0.1516363 0.042166628 0.35842153 -0.37100306 0.1442436 0.29544917 0.24488203 -0.11337425
-0.06285583 -0.034886308 -0.16107342 0.07271507 -0.058340944 -0.286681 0.10508092 0.18281114
0.26223117 -0.29382247 -0.03513175 0.3466814 -0.096681945 -0.13065071 0.15278801 0.075249456
-0.23861457 0.15014994 -0.11676087 0.257022 0.39135328 -0.25119746 0.09263627 -0.21620545
-0.1427762 -0.1293541 0.34846884 -0.62327427 -0.0772857 0.5454685 -0.032293543 0.14178088
0.22518666 0.13189545 -0.021702584 0.21953602 0.19641683 0.113898106 0.23672883 -0.028093856
0.09357638 -0.19166933 0.22471644 0.11532212 0.12643993 -0.1952811 -0.008165688 0.14704275
-0.17761041 0.16929454 -0.19591156 0.2467678 -0.13148597 -0.39454216 -0.07696791 -0.16105522
-0.49536297 0.19421104 -0.0061125173 -0.16305982 0.2140424 0.044906754 0.259611 0.050785806
0.19490328 0.03715724 -0.59854496 0.15615773 0.21588336 0.14337282 -0.009136979 0.38088438
0.09668946 0.06261379 0.2911805 0.20108585 -0.070735306 -0.15192792 -0.08688427 0.15559067

fc4.bias f4 [4]
00000000: 6e2e db3c 7736 7a3e c0bc 023d aa98 c63b
0.026755538 0.24434839 0.031918287 0.0060606794
